Street_Character_Recognition/model.pt (torch, 202494 bytes, 16 tensors)

cnn.0.weight f4 [16, 3, 3, 3]
00000000: 3fce 8fbb d518 bc3d e5f7 3ebe 1885 0fbe
00000010: 2ea5 a5bd 7698 cc3c 9e01 0f3b 7934 123e
00000020: b435 2abd 0b96 183d aaa3 a9bd d792 a4bd
00000030: 5478 46be f7bc 17be 9323 f1bd e6de 4f3b
00000040: f659 663d ea42 a83d 1729 dbbd febc 87bd
00000050: 6c37 863d d602 463e 5fa0 95bc d51f 0c3e
00000060: 14c2 af39 1b0b e43c b28b 273e 7791 00be
00000070: 90ca d4bd a610 5dbd 171a 9ebd b2a6 153e
00000080: 4cfb 1ebe 3d8f 08be 46b2 36be f889 65be
00000090: 3605 58bd d183 3e3e 5fe4 ad3d 0f2e b83d
000000a0: 3222 46bc 8a0e 05be 04c6 acbc e702 6dbe
000000b0: c115 40be b44a a23c b381 4d3e 73e4 2e3e
000000c0: bb78 c7bc e52b 1d3d ccac 243e bd81 4d3e
000000d0: 5e49 c03d ec4d 443d e507 733e f888 c5bd
000000e0: 11b2 fbbc 5cb7 28bd 9861 f1bd d5c5 2bbe
000000f0: d8f3 393e e0fd a03d bb31 46be a343 123e
00000100: 36e8 ba3d 5616 03be e1a4 b83d c4ba e33c
00000110: 5d23 573c 914c 823e 2b5e 36be 5689 3dbe
00000120: b6bd 183e 80ad 183e 9d80 953d 7374 783e
00000130: 166e d83c 8057 87be 6405 a83d 93c2 12be
00000140: 95b4 92be 0b28 893e 058d 453e e375 5abe
00000150: a888 b83d 0db0 ffbc 075f bbbd eae8 bdbd
00000160: ae08 873c 4e89 5ebe 1eaf 393e 5823 1f3e
00000170: ea8a f83d 090f 0a3e 9f2d 3cbe e7ff 3cbe
00000180: 1025 bf3d 3dbf 9abc 9c38 84be e6f4 313d
00000190: fffe 913e 1546 243e 6d04 fc3c f660 333c
000001a0: b32e 46be 4c63 6b3d 0266 12be 02bc 50be
000001b0: eca7 64bc b8fd 963c 6b00 a4bd f3bb fb3d
000001c0: 5264 f3bd 2300 333e 26f8 193e 2ee5 24be
000001d0: b5a1 5ebd af9a 0bbb da89 1e3c e0e6 153d
000001e0: 92c3 9d3d b068 9b3a 91d8 d4bd e3b3 d03d
000001f0: a519 46be d4ef 07be c90d bfbc 604d 98bd
00000200: 0310 08bd 9704 f2bd 4ccd 2fbc 7614 a03d
00000210: c319 97bd 2c23 c43c 9991 2a3e 6e44 cc3b
00000220: 5c6c ce3c 03d4 e5ba 2008 763d 56c9 0d3e
00000230: e884 463e 3f5b 0e3e cafa 483e f030 36bb
00000240: b711 19be 99b2 97bd 6fe5 113e b05c 9d3c
00000250: d71c a6bd 9d1a 0dbe 7397 27be c392 19be
00000260: 4bd4 f1bc b891 e73d 3075 d83d 7b80 40be
00000270: d0ba fc3d 90f2 1bbe d014 3ebd 01fd a1bd
00000280: 5617 2bbd 2926 37bd bf76 32be cb5f 26be
00000290: b377 a8bc 146a c7bc 2b6a dbbd 75e2 813d
000002a0: 6838 5abe e000 33bd 726f 1f3e d93a 9dbd
000002b0: 5727 3a3e 9f0b aa3d 7fe1 4fbe 42bb cd3d
000002c0: f786 05bd 53f1 06be 864c f03d 072c 32be
000002d0: 347d 843d c337 feb9 9c23 2e3e 3eb9 8b3d
000002e0: c318 d83d 3676 a73d d6b4 45bd 6b29 2cbd
000002f0: 5f5e 1bbe 55b5 0f3e 7060 423e 123b 2a3e
00000300: ce38 40be f1fa 0cbd 2557 2fbe f198 59be
00000310: 4632 53be e243 4fbc 7bc6 9cbd 29ab 0b3d
00000320: b60d 3b3d 63f7 7c3d 38c7 4abe 4746 34be
00000330: d46a 72be 2656 bb3c 4a03 27be 90bf 933e
00000340: 300e 4b3e fe7d 163e 9a07 b43c 25ec 9bbb
00000350: 4a58 883d 5d5f bdbd d03a 11bd 507f 4f3c
00000360: 2e16 8abe d221 12be 382f 5c3e 0228 78be
00000370: ac3b 7abc 8bb1 943e 7345 5d3c dfdd 113d
00000380: 424f 39bd a851 4abd dca6 49be 96fc 00bc
00000390: af8d 32be 0285 43bd b7c2 b23d 9db1 a33d
000003a0: fbe3 0f3d d83f 8d3e 33f3 033c 2432 1abe
000003b0: fa86 153e 6440 56be c545 95bd e5fd 173e
000003c0: 7531 a33c e82e 363e 6053 3a3d 79b7 f83d
000003d0: eb2c 2d3e ad32 1ebe bcdc 243e a6b9 36be
000003e0: 11ff 20bd dc58 bcbd f871 43be 0d9f 94bd
000003f0: ce28 883e e30c a5bb 4e7c d0bd 7b24 96bd
-0.0043886 0.09184424 -0.18649252 -0.14015615 -0.08088146 0.024975043 0.0021821032 0.14277829
-0.04155512 0.037252467 -0.082831696 -0.0803582 -0.19381839 -0.14818178 -0.11774363 0.0031718551
0.056238137 0.08215888 -0.10701197 -0.06627844 0.0655354 0.1933702 -0.018264947 0.13684018
0.000335232 0.027837327 0.16361883 -0.1255549 -0.10390198 -0.053970955 -0.0771982 0.1461437
-0.1552555 -0.13335891 -0.17841443 -0.22415912 -0.052739345 0.18604971 0.08490824 0.0899316
-0.012093114 -0.12993827 -0.021090515 -0.23145638 -0.18758298 0.019811012 0.20069008 0.17079334
-0.024349561 0.03837194 0.16081542 0.20069022 0.09388994 0.047925875 0.2373348 -0.09645265
-0.030724557 -0.04119049 -0.11786193 -0.16774686 0.18159425 0.07860923 -0.19354908 0.14283614
0.09126322 -0.12801489 0.09015823 0.027799018 0.01313099 0.2544904 -0.1780936 -0.18509421
0.14916119 0.14909935 0.07299922 0.24263172 0.02641968 -0.26433945 0.08204153 -0.14332037
-0.28653398 0.26788363 0.19292076 -0.21334033 0.0901044 -0.031211877 -0.091489844 -0.092729405
0.016483631 -0.21732065 0.18133208 0.15540826 0.12135871 0.13482298 -0.18376778 -0.18456994
0.09333241 -0.018890018 -0.2582444 0.043446444 0.2851486 0.16042359 0.03076383 0.01094841
-0.19353752 0.057467744 -0.14296725 -0.2038422 -0.013956051 0.01843153 -0.08007892 0.12291708
-0.11884369 0.17480521 0.15036067 -0.1610305 -0.054353435 -0.0021301915 0.009676421 0.036597133
0.07703318 0.0011856761 -0.10392869 0.10190561 -0.1934572 -0.13275081 -0.023322003 -0.07436633
-0.033218395 -0.11817282 -0.010730099 0.078164026 -0.073779605 0.023942553 0.16657104 0.0062337434
0.025198154 -0.0017534498 0.060066342 0.13846335 0.19386637 0.13901995 0.19626918 -0.0027800165
-0.14948164 -0.07407112 0.14247678 0.019209236 -0.081109695 -0.13779683 -0.16366367 -0.14997391
-0.029520174 0.113070905 0.10569227 -0.18799011 0.12340319 -0.15229249 -0.046406567 -0.07909585
-0.0417703 -0.044714127 -0.1742811 -0.1624748 -0.02056489 -0.024342574 -0.10713609 0.063420214
-0.2131058 -0.043702006 0.15569857 -0.0767724 0.1817907 0.08302998 -0.20300864 0.10045482
-0.032599416 -0.13177995 0.11733346 -0.17399608 0.06469193 -0.000484882 0.17005771 0.068224415
0.10551598 0.08176844 -0.04826816 -0.042031687 -0.15172718 0.14034016 0.189821 0.16624096
-0.1877167 -0.034419004 -0.17123087 -0.21249749 -0.20624647 -0.012650462 -0.07655045 0.034098778
0.045667373 0.061759364 -0.19802558 -0.17604934 -0.23673564 0.022868227 -0.16309848 0.28857088
0.19829631 0.146965 0.021976281 -0.004758375 0.06657465 -0.09246705 -0.03545648 0.012664631
-0.26970047 -0.14270714 0.21502388 -0.24234012 -0.015273016 0.29041705 0.0135053275 0.035611983
-0.0452416 -0.04939428 -0.19692558 -0.007872721 -0.1743686 -0.047734268 0.08728545 0.079928614
0.03512953 0.2758777 0.008053589 -0.1505819 0.1460227 -0.20923 -0.07288698 0.14842947
0.019921044 0.17791331 0.04548967 0.1214437 0.16911666 -0.15449019 0.16099828 -0.17844257
-0.03930575 -0.09196636 -0.19086444 -0.07256899 0.26593632 -0.0050369366 -0.10179959 -0.07331177

cnn.0.bias f4 [16]
00000000: 4f93 6b3e 1f7b d4bc 9601 b4bd fb02 7b3c
00000010: c3e6 213d 9c24 60be 2b75 253e 5203 2bbe
00000020: 8927 cbbd 2dd3 3fbe 6259 8abd defc 3b3e
00000030: a129 a4bd f960 903e 1ba4 9abc bf67 cb3d
0.23005413 -0.025937615 -0.08789365 0.015320535 0.039526712 -0.21888965 0.16157977 -0.16700485
-0.0991965 -0.18732901 -0.0675533 0.1835818 -0.080157526 0.28198984 -0.01887708 0.09931897

cnn.3.weight f4 [32, 16, 3, 3]
00000000: d3e7 e83c 8379 5dbd 3930 a93d 35ca 8d3d
00000010: 1615 d03d f430 723d 49be 9cbc 519a d33d
00000020: c201 2d3d 6d2e 123d a20b 88bd 47c6 98bc
00000030: 3dd3 99bd 7971 82bc c19b 083d 830e 44bd
00000040: 8132 623d 8811 913d 784d 2ebe f819 92be
00000050: bb0a 69be 9edb 62be 2714 1fbe a9ae 88bd
00000060: 4f4c fcbd 51a5 22be 1893 16be 55f1 06be
00000070: db69 09be 818d 763b 77b2 c7bd b573 4cbc
00000080: 9e17 acbd 0489 cebd 7b94 e3bd 4088 70bc
00000090: b261 bdbc 9302 4c3d 9b25 363d 1e2b 273d
000000a0: 356a c9bb e7aa edbc a748 3fbc 3fa3 643c
000000b0: aa1f 543d 5a4c 84bd 4a91 843d 2a04 7dbc
000000c0: b91b a3bd e01f 6ebd 6e0d 813d e897 663d
000000d0: 4127 d5bd b4a4 223d 3006 283d b3e1 343d
000000e0: d94a 8f3d 7962 0cbd 98e9 003d 9a3e 3a3d
000000f0: 226e 07bc d9fc 3f3d 1bdf 343b ad78 753c
00000100: 42ff 8cbd cc4d 70bd d595 a73c 984b 863c
00000110: 2a4b e8bc a5d1 c83c 8428 973d ee10 fa3c
00000120: 7592 75bd 248a 97bd 76c9 b23b 36f7 4bbe
00000130: fdd2 2bbe cf4a cebd 105a 4dbd a931 debd
00000140: 628d bbbc f1d4 6fbd deed 873d eec9 933d
00000150: 0918 98bd b4a1 8abd 19fc 51bd e47a 5bb9
00000160: b402 783a 2457 0dbd 68c7 1fbd 94bb 9b3b
00000170: 1fa0 40bd 1964 483c 130d e9bc 02ee 26bd
00000180: 7845 e83c b206 af3d e7b5 ddbc a74c 913c
00000190: e55d 82bc cc67 d23d f548 85bd 011f 81bd
000001a0: fd87 d73d cc2b 10bd 5189 233d 1a15 a73c
000001b0: eed4 4dbc b32e 7cbc 9330 a73d 3d68 63bc
000001c0: eaaf b6bd 2ab4 20bd b251 67bd 4063 593c
000001d0: cec7 64bd a21d e83d 6998 ba3c 7b3d ed3c
000001e0: d122 bf3d 8df5 8a3d d59c cc3d 9f27 9f3d
000001f0: bd56 90bb 8566 04bd 9002 813c d16c ba3d
00000200: 1301 b23c bd0b a1bd ae21 233d f512 e13d
00000210: 3e6a 11bd d1e5 aabd 94c3 78bd cc21 063d
00000220: c42b e03b 8e8f a4bc 4cb3 153d 2230 4b3d
00000230: eb21 c53d da0f 9a3d 3656 0f3c 3975 12bd
00000240: b8a0 4dbd 63e6 cc3c 7a22 de3c 1842 e33c
00000250: 8d4b dabd c963 ec3c 59fc 713d f76e 543d
00000260: f2a4 ffbd 9936 ae3c 5e2b bcbd 5a85 9d3d
00000270: 859d 60bb 048f 64bd bf03 e03c e63b 253c
00000280: 104d 30bd 860b fdbb 7450 1c3e 9065 92bd
00000290: 0d5b 893e f8eb 3f3e 7708 5dbd 1212 7f3e
000002a0: bc41 943e 12ed 14be e122 8a3e 23ea 323d
000002b0: 43ed e2bd 1a91 4c3e 9292 973d 692b 80be
000002c0: 84e2 a33d cfd5 383d 037f 31be 02ce f53d
000002d0: 007a 19bd cb54 e9bc 9609 903d ff8d 343d
000002e0: c979 ba3c 8dc8 a1b9 a815 753d 22ec 61bc
000002f0: 58d2 05bd a5fc bcbd e034 97bd 959b 993c
00000300: a588 a0bd cb63 afbc 08e5 b1bb 9f21 db3b
00000310: 432e 72bd c963 9a3d af6f 283c 89ea a33d
00000320: 9593 e5bd 65a0 6fbb 9267 9e3d 848a afbd
00000330: a38e 8f3d 0348 32bc 5802 f3bd 8a33 f3bb
00000340: cd89 5bbd cadc 76bc f524 b5bd 63fe cabb
00000350: 53a8 2cbe d875 a1bc f99a aa3c 8dee 2fbe
00000360: 1f46 dc3d f881 dd3d 15c5 ebbd ef63 9f3c
00000370: cc2b a33d 3860 c0bd c6c3 41be 983b e23d
00000380: 0f28 35be 1a25 9f3d ce6d c6bd a9c1 c23d
00000390: 2afd 283d 496d eebd 73d9 803d 901a a03d
000003a0: a077 fdbc b66f d8bc 9788 0b3d 7ff3 83bd
000003b0: 3464 a03d b824 a83d 2b89 25bd 61b8 84bd
000003c0: 9508 813d 0db7 3a3c 6cc6 e83c be09 2bbd
000003d0: 60c8 123d 13a3 8c3d 75d6 1e3c 9530 bfbd
000003e0: 9ed3 2c3d 8574 58bd 114f da3b 286b c538
000003f0: a9d7 dbbd babb 4c3d 6b5c 06be e6e3 20bd
0.028430855 -0.05407096 0.08261151 0.069233336 0.10160272 0.059128717 -0.019133704 0.10332168
0.042238005 0.035688806 -0.06642844 -0.018649234 -0.07510994 -0.015923249 0.033351664 -0.047865402
0.055223946 0.07083422 -0.1702174 -0.28535438 -0.22758 -0.2215409 -0.15535031 -0.06673939
-0.12319242 -0.15883376 -0.1470455 -0.13177998 -0.13419287 0.0037620964 -0.09750836 -0.012478759
-0.08402942 -0.100847274 -0.11112305 -0.014680922 -0.023117874 0.049807142 0.044469457 0.040812604
-0.006146694 -0.029012157 -0.0116750365 0.0139549365 0.05178801 -0.064598754 0.06473024 -0.015442887
-0.07964272 -0.058135867 0.0630139 0.056297213 -0.10407878 0.039707854 0.041021526 0.044160556
0.06996698 -0.0342736 0.031472772 0.045469858 -0.008266004 0.046871994 0.0027598802 0.014982385
-0.06884624 -0.058667943 0.020457188 0.016393468 -0.028356154 0.024514029 0.073807746 0.03052565
-0.059954125 -0.07399395 0.005456145 -0.19918522 -0.16779704 -0.10072862 -0.05013472 -0.10849316
-0.022894565 -0.058552686 0.066371664 0.072162494 -0.07426459 -0.06769124 -0.05126581 -0.00020931248
0.0009460852 -0.034506932 -0.039008528 0.0047525857 -0.047027703 0.012230896 -0.028448617 -0.040754326
0.028353438 0.08546199 -0.027064277 0.017736746 -0.015913913 0.10273704 -0.06508056 -0.06304742
0.105239846 -0.035198018 0.039925877 0.020395804 -0.012562973 -0.015391993 0.08163562 -0.013879833
-0.08920272 -0.039234318 -0.056474395 0.013268292 -0.05585461 0.11333777 0.022777753 0.02895998
0.093328126 0.06785116 0.09990851 0.07771229 -0.0044048713 -0.032324333 0.015748292 0.09102786
0.021729028 -0.07863567 0.03982704 0.10989944 -0.03550171 -0.08344615 -0.060733393 0.032747075
0.006841155 -0.020087983 0.036547944 0.04960645 0.0962561 0.07522555 0.008748582 -0.035756323
-0.0502021 0.0250122 0.02711605 0.027741477 -0.106589414 0.028856175 0.059078548 0.051863637
-0.12482633 0.021266269 -0.09187959 0.076914504 -0.0034273576 -0.055800453 0.027345536 0.010085082
-0.043042243 -0.007722321 0.15265065 -0.07148278 0.2682728 0.18742359 -0.05396315 0.24909237
0.289564 -0.1454356 0.26979735 0.04368032 -0.1108041 0.19977227 0.07401003 -0.2503312
0.08002189 0.04512578 -0.17333607 0.120021835 -0.037469864 -0.028482815 0.07033078 0.04408073
0.02276315 -0.00030857735 0.059835106 -0.013789209 -0.032671303 -0.092278756 -0.07383132 0.018750945
-0.07838563 -0.02140989 -0.005428914 0.0066873576 -0.05912615 0.07538564 0.010280534 0.080037184
-0.1120979 -0.0036564108 0.07734598 -0.08571342 0.07009628 -0.010881427 -0.118656814 -0.0074219154
-0.053598214 -0.015067289 -0.088449396 -0.006194876 -0.16861086 -0.019709513 0.02082585 -0.17180844
0.10755562 0.10815805 -0.115122 0.019456832 0.07967338 -0.09393352 -0.18922338 0.11046523
-0.17691062 0.077707484 -0.09688912 0.09509594 0.04125706 -0.11641938 0.06291475 0.078175664
-0.03094083 -0.026420455 0.03406581 -0.064429276 0.07831612 0.082101285 -0.040414017 -0.0648048
0.06300465 0.011396182 0.028414927 -0.041757338 0.035835624 0.068670414 0.009694685 -0.09335438
0.042194 -0.052845497 0.0066622575 9.4136514e-05 -0.10734493 0.049983718 -0.13121192 -0.03927984

cnn.3.bias f4 [32]
00000000: c87e f23d f2eb a33d b05a 103e 771f c03d
00000010: 051d 553e 92f7 c43d d2c7 363d c28f c5bb
00000020: 7c8d 623d a7ca 873c 33ad 113e b7ec 7e3d
00000030: e2ba a83d 135c 6cbc 3e7f f03c 94e4 103e
00000040: 183d 0c3d a2b7 7e3d e050 99bd c5d6 49bd
00000050: 0434 d13c 915b fdbc a158 e43d 4d10 5f3c
00000060: 1b20 3e3e 9170 bbbc 600b a93d de1e f5bc
00000070: 3c3e 313b 1636 e6bc 61c5 43bd 180c 8dbd
0.11840588 0.08003987 0.14097095 0.093810014 0.20811851 0.09617533 0.044624157 -0.0060291
0.05531071 0.016576124 0.14226227 0.062237468 0.0823877 -0.014426249 0.029357549 0.14149696
0.03423795 0.062186845 -0.07486129 -0.049277086 0.025537498 -0.030927451 0.11149717 0.013614726
0.18566935 -0.022880824 0.08254123 -0.029921945 0.0027045151 -0.028101962 -0.047795657 -0.06887072

fc1.weight f4 [11, 672]
00000000: 69e0 2cbc b435 18bc 8938 6bbc d01f e93b
00000010: 052c e63c bb5c e93c 0525 10bc 9ec8 853c
00000020: 42d7 8abc b707 dbbc 48da 413c f046 183d
00000030: 752c 85bb 1191 18bd 7d56 163b 4ebf d4bc
00000040: db7e 0abd b124 203d 8bb1 b13c d2cc 9cbc
00000050: ed3f 06bd 0b29 b73c dc16 153d 4afa 0ebd
00000060: 2acc 2fbd 021b e1bc f800 9b3c 632c 39bd
00000070: 5d4f 8cbb a720 1a3c c23b 18bd a6ef 24bd
00000080: e8e9 33bd 1924 05bd 2965 073c beae 293d
00000090: 55e7 a0bc a4c6 70bd d4aa 92bc bb90 9ebd
000000a0: d64e dbbc 5438 1bbb 30d0 2fbd a2a8 eabb
000000b0: dbaf 923c 8901 dcbc a675 25bc 4732 30bd
000000c0: fa09 4a3a 534a 92bb 2a10 083d 4121 30bc
000000d0: c815 6abd 430f efbc 3f52 123b 5850 ddbb
000000e0: d383 1a3c 032f 0dbd 3815 5539 4c4a 8abd
000000f0: b273 943b 943d 8ebc 951d 62bb d157 08bd
00000100: 8e23 413d fd11 843c b773 d8bc 6525 59bd
00000110: 135d 89bc 4ef2 48bd 65f9 afbc 466f ee3c
00000120: cbdd be3b ce5c 72bd d18e 6dbd ad58 5c3c
00000130: 031a 45bd c08a ffbc 82d7 55bc cf83 0dbc
00000140: 383a 72bd 414c ccbd 9708 e7bc 7334 90bc
00000150: e4a6 91bd 8b3d cbbb 9582 a7bd 8c3e ccbd
00000160: 4201 67bd 6581 6ebd f2cc 18bd e2db 4bbc
00000170: 66a2 3abd d50c 6cbd 63df 8abd 893d 86bd
00000180: 79b5 95bb 77d3 34bd 9b6c 0ebb 568a 78bd
00000190: 6d22 64bd 2cfc e4bc 6398 98bd 658d e63b
000001a0: c4d8 c33b 8d88 56bd 8902 fcbb 914c 50bd
000001b0: decb 313b 7afd 79bb 9484 43bd 7349 f1bb
000001c0: e980 cebc 403d 9e3c 144b b33c 3d45 0f3b
000001d0: e839 3b3c 2a87 c63b c3a1 853c 9c8c 85bc
000001e0: 1696 7fbb ca3e 08bd a1d5 b8bc 6eee 09bd
000001f0: 89d2 e1bc bebb 1a3c 5c6b d03c 4cbb aeb9
00000200: b2b5 c0bc c5e5 8d3c 13a9 3cbd 8153 b13a
00000210: 6cf4 26bd 7879 cc3c 9c6a 543d 8be6 cfbc
00000220: 1191 57bd 69a1 0fbd 09ef a43c 4f1e 94bc
00000230: b3af 453b 49f7 663b 79f8 133c ab91 02bd
00000240: 1cf9 943c 791c 8fbc 15be 003c b627 0c3d
00000250: 568e c43c f1db 93bc d8d3 cdbd b660 babd
00000260: fba9 f43c ede0 483c 3252 ef3b 01fe da3c
00000270: 426c 01bd 7ad4 ccbd ce9a d8bd 26ad 41bb
00000280: b210 8bbd e87a fb3b 1a0e b8bc a8a8 1cbe
00000290: f250 1cbe 0f2b babd c54a e63c afa1 6ebd
000002a0: e0b3 b6bc 6499 dcbb a548 12bd 69b3 9c3b
000002b0: 3128 5cbc 3543 69bd 1cb1 dbba 029b ae3c
000002c0: 37c8 2ebc 082d 26bc 7406 4dbc 7b9a 10bd
000002d0: d317 1fbd 6a20 8b3c fcb3 173c 6d1c 1dbd
000002e0: ddb2 41bd 77f4 243d 44a3 6bbb 5fa9 bebc
000002f0: 4b42 823c 937e 053d 52da 573a cd07 193d
00000300: ce3a c5bd 715c 47bc 9c81 83bd 1972 2dbd
00000310: ceb6 b33c 5105 83bc 9795 29bc dd49 36bd
00000320: fdec 75bc 8b66 49bc 70d6 0bbb 7c09 bc3a
00000330: 78c6 22bb 1395 f2bc f210 4dbc 19e3 9abc
00000340: 73b8 2ebc 369b bcbc ab4d 38bd 40fd 8abc
00000350: 366f 983b 6838 fa3b dea6 92bc ee40 78bb
00000360: beb9 863c 920a 6b3c 2ad9 4c3c eb64 2cbd
00000370: edd6 f2bc c7be 4539 11a1 b4bc d08c 82bc
00000380: 3e4f 58bd 8f29 8ebc 3ae3 2fbd 00cc 28bd
00000390: 955a 12bb 01b2 693c 098f 3a3d 7a85 8b3c
000003a0: b0ee bcbc 2658 453c 86da 4bba 3198 55bc
000003b0: 3606 0dbd 5066 c8bc 2d86 c4bc c014 8cbc
000003c0: b811 bdbc b4fb 45bd ed93 82bd c607 80bc
000003d0: 816c 53bd 6acb fdbc 22b2 c93b 3df6 4dbd
000003e0: 06c3 ec3b 11b2 e43c 5aad d2bc 4fa0 81bc
000003f0: 87f7 41bd ee02 2d3b b366 bcba 219d 21bd
-0.01055155 -0.009290148 -0.014356741 0.007114388 0.028097162 0.0284866 -0.008797889 0.016331013
-0.016948346 -0.026737077 0.011831827 0.037177026 -0.0040641376 -0.03724772 0.0022939735 -0.025970127
-0.033812385 0.03909749 0.021691104 -0.019140635 -0.032775808 0.022358438 0.036398754 -0.034906663
-0.042919315 -0.027478699 0.01892136 -0.045208346 -0.004281922 0.009407199 -0.037166364 -0.04026761
-0.043924242 -0.03250513 0.008263865 0.041426413 -0.019641558 -0.05878319 -0.017903723 -0.07742449
-0.02677099 -0.0023684697 -0.042923152 -0.007161216 0.01790612 -0.0268562 -0.01009885 -0.0430167
0.0007707175 -0.0044644265 0.03321854 -0.010750116 -0.05714968 -0.029182082 0.0022326855 -0.0067539625
0.009430843 -0.034468662 0.00020321168 -0.06752452 0.0045303935 -0.017363347 -0.0034502496 -0.033286873
0.04715305 0.016121859 -0.026422365 -0.053014178 -0.016768014 -0.049059205 -0.021481225 0.029105794
0.0058247796 -0.059170537 -0.05799753 0.013448876 -0.04812051 -0.03119409 -0.013051869 -0.008637383
-0.059137553 -0.09975482 -0.028202338 -0.017603135 -0.0711191 -0.006202405 -0.081792034 -0.09972867
-0.056397684 -0.05822887 -0.037304826 -0.012442561 -0.04556503 -0.057629425 -0.06780889 -0.06554706
-0.0045687524 -0.04414698 -0.0021732214 -0.060678802 -0.055696893 -0.027952276 -0.074509405 0.0070358985
0.005976768 -0.05237632 -0.007690732 -0.05085427 0.002712957 -0.0038145469 -0.04773386 -0.007363492
-0.025207954 0.019316316 0.021886386 0.0021861338 0.01142738 0.0060585933 0.016312486 -0.0163024
-0.003899937 -0.033263005 -0.022562804 -0.03367465 -0.027566211 0.009444175 0.025441818 -0.00033327413
-0.02352414 0.017321477 -0.04605968 0.0013528914 -0.040760443 0.024960265 0.051859483 -0.025378486
-0.05262858 -0.035066042 0.020133512 -0.018080859 0.003016454 0.0035242608 0.0090314085 -0.0318772
0.01818519 -0.017469632 0.007857819 0.03421756 0.023993652 -0.018049212 -0.100501716 -0.091004774
0.02986621 0.012260658 0.0073034996 0.026732447 -0.031597383 -0.10001464 -0.10576402 -0.0029552667
-0.06790294 0.0076745637 -0.022467662 -0.15298712 -0.15265253 -0.09090244 0.028111825 -0.058259662
-0.022302568 -0.006732153 -0.03571381 0.0047821295 -0.013437317 -0.05694886 -0.0016761157 0.021314148
-0.010667852 -0.010142572 -0.012513746 -0.035303574 -0.03884108 0.01698323 0.00925922 -0.038357187
-0.047289718 0.040272202 -0.0035955468 -0.023274122 0.015900752 0.032591414 0.00082341314 0.037360955
-0.09630357 -0.012168036 -0.064212054 -0.04234514 0.021937754 -0.015993746 -0.010350606 -0.044504035
-0.015010116 -0.012292515 -0.0021337532 0.0014346088 -0.0024837535 -0.0296121 -0.012516247 -0.018907117
-0.010664093 -0.02302323 -0.044995945 -0.016966462 0.0046519293 0.0076361187 -0.017901834 -0.0037880498
0.01644599 0.014345782 0.012502948 -0.04208843 -0.0296435 0.00018858454 -0.022049459 -0.015936285
-0.052809946 -0.017353801 -0.04294131 -0.041210175 -0.0022331823 0.014263631 0.045546565 0.01703142
-0.023063034 0.012044942 -0.0007776398 -0.013036774 -0.03442975 -0.024462849 -0.023989761 -0.017099738
-0.023079738 -0.048335746 -0.06375871 -0.015628707 -0.05161715 -0.030980784 0.0061552683 -0.05028366
0.007225397 0.02791694 -0.025717426 -0.015823511 -0.0473552 0.0026399451 -0.0014373868 -0.03945649

fc1.bias f4 [11]
00000000: e813 81bb 3bdb c93d 4ee9 fa3c 27bf 853c
00000010: a22b 3bbd ee13 31bd 0614 22bd 0504 72bd
00000020: c2ce 11bd a5ca bdbc 0738 00bd
-0.0039391406 0.09856268 0.030628826 0.0163265 -0.04569591 -0.043231897 -0.039569877 -0.059085865
-0.03559757 -0.023167918 -0.03130343

fc2.weight f4 [11, 672]
00000000: d437 ecbc bdfc 163d b11d 6b3d abc5 0a3d
00000010: 063d 7e3b 9818 353b a43e 203d fa61 61bb
00000020: 62f7 133b e317 593d 60f0 2bbc 2f97 c0bd
00000030: c546 aa3c 144a 90bc 5e1a 143d 86c3 2239
00000040: 6915 493a 6b72 9e3c 15a1 aabc 45af 1fbd
00000050: 5e4e a93c 64aa 923b 859f 04bd fc5d 70bd
00000060: 25e5 b2bc be16 2dbd 8b52 86bd 211a 1fbd
00000070: 5871 6abc eb32 2cbc 3963 e5bb 438e 613d
00000080: 69a6 2d3e 9ce3 493c 5fde 0fbc 9e03 6fbc
00000090: e2ef b33b 9fe2 b23c bada 453c 9239 8a3d
000000a0: c56b 393c 098b 0dbd 909e 8e3b a74a 6fbc
000000b0: 6d76 9dbc 9b79 353d f4d7 9b3d 66a2 123a
000000c0: b9c1 a13c 8a4c 26bb 474b 9fbc e015 103c
000000d0: 83ed babd 3c85 48bd fae6 15bd 1880 b23c
000000e0: 2a43 06bd 823e b0bc a170 c53c 2edf 8dbc
000000f0: a482 5abc 82c0 20bb 485b d23c 0618 29bc
00000100: e9e5 a83c 37de 99bc b1d0 e7bc a210 d1bb
00000110: 9021 e3bb 640f b83c 6158 4bbc 6118 5b3c
00000120: 19e3 103d e3cf bb3c 27d9 ccbd 06d0 383b
00000130: 0418 213d 6081 2fbd 957e 98bc 17b6 57bc
00000140: a625 94bc 7492 2ebd 7f3e ac3d 0c72 13bd
00000150: 507e 173d 8b75 0e3c 679d 783c 1bc2 3b3d
00000160: c7a3 6bbd 496d aa3c 6826 b8bc 65e5 e2bc
00000170: abae eb3c 7a39 073d 5e1f c6bd 0a3a 3d3d
00000180: 73f8 b43d 15b6 1f3d 8d62 8fbc 1aeb 483d
00000190: 607f 0f3d c660 4abd 904a 59bd 620b 28bd
000001a0: d58c 8c3d 3006 81bc ef80 3e3d 8e69 85bc
000001b0: 6fb9 fabc d2cf a83a fbdc 1c3d 3b94 833c
000001c0: 19f3 a5bc 5902 f73c 0880 d13c bd37 31bd
000001d0: 3927 523b d62d 043d 756e b938 f5c9 81bb
000001e0: 2bb8 033d fd6d 2d3c 797e 93bc 0b87 f93b
000001f0: ce48 333d 91dc 2b3c 99cb 263d f3e4 84bc
00000200: e60b 5bbb e0ed 923c 194e 023d 5860 4c3d
00000210: d372 8cbc 54ef 91bc 48cc 1a3c 10b0 e63c
00000220: 4399 86bd 93ac 7cbe 3ecb 62bd 1612 8cbc
00000230: 7df6 573d 9a06 373d 0800 573d db88 d1bc
00000240: 2d3b 70bd dec0 39bc 7bd4 aabc 756a 03bd
00000250: aff1 b2bc 770f 173d 32a1 ccbc 36d2 8fbb
00000260: c6c8 c43c 230b 08bc d4a2 29bd debb adbc
00000270: d2ef 3b3d bbba 593d 32de 3bbd 75f0 2e3b
00000280: e7b8 01bd 71c9 0c3d 440f 083c 1798 2d3d
00000290: 7d7a 22bd 89f6 a43d 3cd3 273d 33c6 bbbc
000002a0: e319 773c cd69 3a3b 9ec6 9e3c 250f f53c
000002b0: bfb1 203d 17ec 333d 2bad 193d bbf7 d4bc
000002c0: 0c71 42bc a85c 3e3c 6fa9 a0bd fec2 ccbd
000002d0: 43b9 d5bc c0ca 1b3d f724 f5bc 2397 223d
000002e0: 519b 273d 5526 2c3c 63c9 063c c9aa ce3b
000002f0: c402 7ebc 199c 3e3d d6a0 d93a df4d f33c
00000300: e454 fe3c bae5 8b3c 9e9a 97bc 41cc da3c
00000310: 7d98 0abd 8e66 ad3c 07c9 493d 0580 90bd
00000320: 2308 1fbe ca8d 03bd 4cb4 b1bc a837 a538
00000330: 24fb 803b e80b 603d 8514 2ebd f1c5 6f3c
00000340: 43c2 683d 3d08 853d 01ef a4bc 36cd df3c
00000350: 3eb4 a7ba c4e8 c3bb 07a1 0b3d 087e 843d
00000360: 1ad9 193d 62b3 b1bc d562 86bb 6c5e 8fbb
00000370: 9db5 51bd 0d9e d6bd a991 f4bc d625 4d3d
00000380: c6c1 2a3c 98d0 1cbc 75e9 0fbd 92cf 6cbd
00000390: 9671 98bc 5e11 c13c 1efb c93c 022c d3bc
000003a0: 5fc7 9f3c 3554 033d 8d48 0d3c e1c8 403d
000003b0: 0cc8 2d3d cb69 83ba 1ae2 a6bc 6363 8fba
000003c0: 49ae cabc 0790 57bd 07f1 d5bd 5923 0fbd
000003d0: fdb5 e83c 2cc3 d3bc 51b3 6d3d e9fa 85bb
000003e0: a8a3 fcbc 502d 843c e8e9 a83a 9d55 17bc
000003f0: 44ad c03c af90 0cbb 1b57 223c 4a11 3c3d
-0.028835215 0.036862124 0.057401363 0.033879917 0.0038793697 0.0027633067 0.03912224 -0.0034390674
0.0022577872 0.053001296 -0.010494322 -0.09403836 0.020785699 -0.017613448 0.03615796 0.00015522362
0.0007670732 0.019341668 -0.020828763 -0.03898551 0.020667251 0.0044758786 -0.032378692 -0.05868338
-0.02183778 -0.042258017 -0.065587126 -0.038843278 -0.01430925 -0.010510187 -0.0070003537 0.055067312
0.16958012 0.012322333 -0.008781045 -0.014588265 0.0054912427 0.021836577 0.012076074 0.06749262
0.011317198 -0.034556422 0.004352398 -0.014605201 -0.019221509 0.044305425 0.07609549 0.0005593657
0.019745694 -0.002537521 -0.019445075 0.008794278 -0.09127333 -0.048955187 -0.03659723 0.021789595
-0.032778896 -0.021514181 0.024101557 -0.017318334 -0.013336811 -0.0024528806 0.025678292 -0.010320669
0.020617442 -0.018782718 -0.028297754 -0.0063801566 -0.006931491 0.022468276 -0.012411208 0.013372512
0.035372827 0.022926277 -0.10002356 0.0028200164 0.039329544 -0.04284799 -0.018615047 -0.013165972
-0.018084358 -0.042620137 0.08410358 -0.035997435 0.036985695 0.008695017 0.015174246 0.04583941
-0.057529237 0.020804064 -0.022479251 -0.027697274 0.028769812 0.0330138 -0.096739516 0.04619793
0.088364504 0.038992006 -0.017503047 0.049052335 0.035033584 -0.049408697 -0.053049624 -0.04102648
0.06862799 -0.01575002 0.04650968 -0.016285684 -0.030606 0.0012879318 0.03829668 0.016061893
-0.02025752 0.030152487 0.025573745 -0.043266047 0.0032066836 0.032270275 8.842062e-05 -0.0039608427
0.032158058 0.010585305 -0.018004643 0.0076149753 0.043770604 0.010489599 0.04072151 -0.016222453
-0.003342384 0.017935693 0.03181276 0.049896568 -0.017144596 -0.017814316 0.0094481185 0.028160125
-0.06572201 -0.24675207 -0.055369608 -0.017098468 0.052725304 0.04468403 0.052490264 -0.025577953
-0.058650184 -0.011337487 -0.020853272 -0.032083947 -0.02184376 0.036879983 -0.024979208 -0.004389073
0.024021517 -0.008303436 -0.04141505 -0.021207746 0.045883007 0.053156596 -0.0458662 0.0026693617
-0.031670477 0.034371797 0.008304421 0.042381372 -0.039667595 0.08054835 0.040972933 -0.022921657
0.0150818555 0.002844441 0.019381817 0.029914448 0.039232012 0.043926325 0.03751866 -0.025997033
-0.011867773 0.011618771 -0.07844817 -0.09998129 -0.026089316 0.038035154 -0.029924853 0.039694916
0.040919606 0.010507186 0.008226725 0.0063069803 -0.015503589 0.046535585 0.0016603719 0.029700218
0.031046338 0.017077316 -0.018506344 0.026708724 -0.03383683 0.021167066 0.04926398 -0.07055668
-0.15530448 -0.032117642 -0.021692418 7.87818e-05 0.0039361883 0.054698855 -0.042500038 0.014634595
0.056825887 0.06495712 -0.020133497 0.027319532 -0.0012794805 -0.0059786756 0.034089115 0.06469351
0.03756056 -0.021691982 -0.004101137 -0.0043752696 -0.05119859 -0.104793645 -0.029854612 0.05008491
0.010422176 -0.009571217 -0.03513475 -0.057815142 -0.01860885 0.023567852 0.024655875 -0.02577782
0.019504247 0.032062728 0.0086232545 0.047066573 0.042427108 -0.0010026036 -0.020371486 -0.0010939654
-0.024741309 -0.05262759 -0.10446363 -0.03494582 0.028407091 -0.025849901 0.058032338 -0.0040887487
-0.030839756 0.016134888 0.0012887092 -0.00923672 0.02352012 -0.0021448543 0.009908463 0.045914926

fc2.bias f4 [11]
00000000: aebb 953c 9ccd 25bc 11b0 c6bc 4e22 d6bb
00000010: 1bda 2ebd 489e d5bc 5cd8 31bc 8e82 afbb
00000020: 7917 50bd ee0f bcbc faf7 8b3b
0.01827797 -0.010119822 -0.024253877 -0.006534851 -0.04268847 -0.026076451 -0.010854807 -0.0053561395
-0.050803635 -0.022956815 0.0042715045

fc3.weight f4 [11, 672]
00000000: e367 04bc d9ea 993c 49da 18bd d458 143d
00000010: 7343 a53c 15db 6f3c c6f1 ca3b 2031 a9bc
00000020: 0b24 413b 3c6f 94bd c5bd 4bbd dd91 39bd
00000030: 156d 78bd 51dc 213d 9aee 873c e912 703b
00000040: aa0a 2bbd 8c21 61bd 6bba 873b 1778 26bc
00000050: e850 87bc 14c0 b33b eee4 30bc 9023 9fbc
00000060: 8d86 5cbd bcd3 3bbd 9892 3ebd 8312 843c
00000070: 2208 863d 24a2 60bc 5aba 933d 9103 9ebc
00000080: a891 c43d a8ec d03d de55 4bbc d1c5 f9bc
00000090: 4c91 c63b 97a7 843a 728e 093d c52a 5e3d
000000a0: 97ee 753d d772 67bd fa2f c03b 09fd e6ba
000000b0: 2a79 21bd a6ed 393d 97ec c83c d1f6 033d
000000c0: 14e7 073d 0fe3 0b3d d231 043d 16c2 3bbc
000000d0: 3b56 2abd 5710 05be f62a b3bc 11b2 453c
000000e0: 63f0 7039 a359 823b c116 23bd c99e 6e3c
000000f0: 5747 07bd 7898 30bd e76f 363c 2472 3f3d
00000100: f0ac 31bc 74c3 353d 2537 3fbd 7b1a f0bd
00000110: 8cae 9bba 896a 803b c77b 10bc e6e2 d0bb
00000120: 6084 c83d bd28 8ebc 4d88 983c b818 e13c
00000130: ade8 bd3c c57e 87bd c193 b0bb b10e db3d
00000140: 4bf3 553d ae59 a33c 4669 c63d 4cad c6bc
00000150: 440d 84bc d5cb cc3b 6adb ea3c c8df 5b3d
00000160: 4dbb 863d 15e4 103c a0a4 9bbc 8aad 003c
00000170: 2827 22bd 4731 ea39 7246 62bd 3a33 fdbd
00000180: c446 c93c 2ef8 b7bc 4052 f03c 19c2 213d
00000190: 73dc 2bbd 887a 40bd bbbc c3bd ee09 48bd
000001a0: 073f 10bd 0270 a73c eaa6 ff3b 4bc1 bfbc
000001b0: 8095 10bd 0e43 993b 2784 17bc 5f5d 01bd
000001c0: def5 993b eb9f afbc be5b e1bc 694d 38bb
000001d0: 89a9 75bd 0b5f 733c 23dd ec3c 7380 ae3c
000001e0: cce9 cfbc 2830 32bb 9538 98bb 7ad2 92bc
000001f0: fe74 903b f49d e93c 3827 2f3b e3a2 603b
00000200: bf5b 00bc 6d18 a1bb 84cb 20bd 423f 31bb
00000210: 1886 ed3c 44da cf3c 6289 ed3c f3bb b5bc
00000220: daee 9ebc 98ac 1cbe bf0f 7dbd 6a09 163c
00000230: 706a afbc 67c2 533b 73a4 7ebd 838b 2dbc
00000240: 769e 033c 46cb 603c d6c5 a53c ed14 d73c
00000250: 60f7 5c3a 737c 433c 4b12 b23c 1c15 87bc
00000260: 944c 46bd 36c8 9a3c 9f13 68bd c956 c7bb
00000270: ec08 213d cb9c 8bbc 176c f13c 1273 253d
00000280: 8526 87bc 6d25 933a 367f 283d e322 713d
00000290: eb26 16bc 96b2 9ebb 62f3 cf3d a79e 0abd
000002a0: 0cd2 7bbb f8c0 fb3c 119c f83c 4018 563c
000002b0: f2aa 6a3c c113 863c 7a29 ba3c 47f4 ab3c
000002c0: 8ad9 91bc ae52 63bc 19cc 94bd 2939 dabd
000002d0: db88 63bd 37da 933c cc03 573b 88a0 4abc
000002e0: 348d c5bc d883 b13c 913b a9ba 9664 34bd
000002f0: 75af 4cbb c073 273c 399b 893b af34 13bc
00000300: 6925 7e3c e840 79bc 5769 fe3c 2199 14bc
00000310: 91ab fbbb e644 9f3c ca62 893d 33e8 9bbd
00000320: 7ac7 6dbe a142 2dbd 02ae fcbc 2934 ce3a
00000330: 6a5b 07bd 6750 433d a2f1 71bd 34d6 eebd
00000340: ab87 933c d20f 4fbc 95d8 0e3d 7a3c de3c
00000350: 2e28 a1bc 03a5 39bc 67a8 423d d045 ca3c
00000360: fb02 08bd 9435 ae3c 768a 293d 8dc1 ce3c
00000370: 2835 e0bc 68cc b8bd fca5 7bbc 8a89 ebbb
00000380: 6b09 92bc 6230 0f3a 7904 72bc 9143 52ba
00000390: ab27 55bb 6cf2 eabc 8ad0 6cbc 823e c3ba
000003a0: 5f55 633c 92e6 ed3c bb1f 983c 1776 27bd
000003b0: f525 c23c 83d8 643c eb62 b8bc 9137 983c
000003c0: b601 15bd 709c 1fbd 33d2 bdbd 6177 bb3a
000003d0: e7e5 003d fab7 863c 327f b83b 851f 21bd
000003e0: 3d2d 503c de43 ac3c 9667 99bb d14e 38bc
000003f0: 5d64 8bbc 697a c13c 268b 9ebc a1be d63b
-0.008081409 0.018788742 -0.037317548 0.036217526 0.020173764 0.014639636 0.0061933724 -0.020653307
0.0029470946 -0.07247779 -0.049741525 -0.04530512 -0.060650904 0.03951675 0.016593266 0.0036632365
-0.041758217 -0.054963633 0.004142096 -0.010160468 -0.016518071 0.005485544 -0.010796769 -0.019426137
-0.053839255 -0.045856223 -0.04652652 0.016122108 0.0654452 -0.013710532 0.07213278 -0.01928881
0.09598094 0.102013886 -0.012410609 -0.030489834 0.006059801 0.0010120746 0.033583112 0.054240007
0.06004199 -0.056506004 0.0058650943 -0.0017623018 -0.03942219 0.045392655 0.024526877 0.032217804
0.033179358 0.034152087 0.032274075 -0.011459848 -0.041586142 -0.12994514 -0.021871071 0.01206638
0.00022977735 0.0039779707 -0.03981662 0.0145642245 -0.03302702 -0.043114156 0.011135078 0.046739712
-0.010844454 0.04437585 -0.04668345 -0.11723801 -0.001187758 0.00391895 -0.008818573 -0.0063747047
0.097908735 -0.01735341 0.01861968 0.027477607 0.023182238 -0.06615976 -0.0053887074 0.106961615
0.052233975 0.019940224 0.09688048 -0.024252556 -0.016119607 0.0062498846 0.028669078 0.05368021
0.065786935 0.0088434415 -0.018999398 0.007853875 -0.039588124 0.00044668672 -0.055242963 -0.12363286
0.024569876 -0.022457208 0.029336095 0.039491747 -0.041958284 -0.046991855 -0.09557482 -0.048837595
-0.035216358 0.020439152 0.00780188 -0.023407599 -0.035298824 0.004677183 -0.009247816 -0.031583186
0.004698499 -0.02143856 -0.027509566 -0.0028122312 -0.059976134 0.014854203 0.02891404 0.021301484
-0.025380038 -0.0027189348 -0.004645417 -0.017922629 0.004408478 0.0285177 0.0026726257 0.0034276776
-0.007834374 -0.004916242 -0.039256588 -0.0027045761 0.028994605 0.025372632 0.028996173 -0.022184348
-0.019401003 -0.15300214 -0.061782595 0.009157518 -0.021413058 0.0032311918 -0.06216855 -0.010592344
0.0080333855 0.013720339 0.020235937 0.026255095 0.0008429196 0.0119315265 0.021737238 -0.016489558
-0.048412874 0.018894296 -0.056659337 -0.0060833436 0.03931515 -0.017042538 0.029470487 0.040392943
-0.01649786 0.0011226364 0.041136943 0.05887116 -0.009164552 -0.0048430664 0.101538435 -0.03384271
-0.0038424758 0.030731663 0.030347856 0.013067305 0.014322983 0.016366841 0.022724856 0.020990504
-0.017803926 -0.013874693 -0.07265491 -0.10655434 -0.055550437 0.018048389 0.003280866 -0.012367375
-0.024115182 0.021669313 -0.0012911429 -0.04404124 -0.003123251 0.010220468 0.004199412 -0.008984729
0.015511849 -0.015213229 0.03105609 -0.009069712 -0.0076803644 0.019442033 0.06708296 -0.07612648
-0.23220626 -0.04229987 -0.030844692 0.0015732098 -0.033046164 0.0476841 -0.05906833 -0.1166195
0.018009027 -0.012638049 0.034874517 0.027128447 -0.01967248 -0.011330846 0.047523882 0.024691492
-0.033205967 0.021265782 0.041391812 0.025238777 -0.027369097 -0.090233624 -0.015359398 -0.007188027
-0.017826756 0.00054622267 -0.014771574 -0.00080209324 -0.0032524865 -0.028680049 -0.014454016 -0.0014895948
0.0138753345 0.029040609 0.018569818 -0.040884104 0.02369974 0.013967636 -0.022508105 0.018581184
-0.036378585 -0.03896755 -0.09268608 0.0014302545 0.031469252 0.016445149 0.0056303972 -0.0393367
0.012706098 0.021028455 -0.004681538 -0.01124926 -0.01701563 0.02361794 -0.01935346 0.0065534865

fc3.bias f4 [11]
00000000: d441 833b 9e0f 58bd dead a8bc 98a2 6ebd
00000010: bc76 14bd 48cc e1bc fe7d bebc 2492 34bd
00000020: 5926 72bd 03bb 24bd 0942 d83d
0.00400565 -0.05274927 -0.020590719 -0.05826053 -0.036246046 -0.02756323 -0.023253437 -0.044084683
-0.059118602 -0.04021741 0.1055947

fc4.weight f4 [11, 672]
00000000: a45a a23c 213d 0bbd 0769 6e3c 7e5c b63c
00000010: 9a2f 803d ac20 8cbc 5aac 21bc 364e 93bb
00000020: 958b 523b 62cf d1bd e702 0ebd e22c 1bbd
00000030: 9071 2dbd d299 19bd 74fe ebbc 5287 a5bd
00000040: e944 c1bd 44f3 bb37 3b19 d9bc 56f3 91bd
00000050: a2cb c4bc 4891 35bd fb75 c7bd bcdd 29bd
00000060: ee17 87ba af90 90bd c203 893b 8f26 7fbd
00000070: 3d83 04bd 2c01 34bd 0cc1 11bb ece6 4e3d
00000080: 1f36 293d 8a37 d13c ca35 3c3a 2f01 8dbd
00000090: 46c1 a1bc fcba 683b 1545 9a3c e14b 90bd
000000a0: b94f eebc bfa4 2abd fcb1 823c 199a 3ebb
000000b0: c475 a83b 4ce3 343b 7269 d03c f0ce c43c
000000c0: 243d 093d 40d9 a13c 9da1 47bc 886a 04bd
000000d0: 0f33 76bc 8824 36bd 8d06 c1bd 1338 ca3c
000000e0: 9f1d a33c e17f f9bb 8af4 0abd ee93 1ebd
000000f0: e63e 9cbd ad3d f0bc 7e1f e83a 6498 12bd
00000100: e2f4 49bd 8dcf dabd 72bd c9bd 67b4 edbd
00000110: d5f6 aabc c478 86bd 2619 a2bd 80d6 e2bc
00000120: 1969 843c 0068 88bc 52aa 803d 66ef d83c
00000130: 0fdb a1bd 43c7 86bd 5ddf e2bc 2f52 b53d
00000140: 1e9a 213c b9cc 42bc 901a 893c 7b6d eeba
00000150: c6d0 693c cfd3 1d3c 7c42 56bc a05e f9bc
00000160: 755b 44bc 9993 73bc 3695 553d 23d8 90bd
00000170: e6f0 f7bc f453 833c e670 893c 5707 77bd
00000180: 4e8d 8ebc 9c8f a5bb 2bd0 55bb dc9e 05bd
00000190: 705f 473d 32bf 743c bb7b 433c d4c9 b33c
000001a0: 020c 2dbd cec7 233c d08f 84bc 11c2 963a
000001b0: b4b2 62bd 8e93 1ebd b337 823c 6f08 b5bc
000001c0: 4295 f6bc 7118 b5bc ece6 f9bc 2a65 9c3b
000001d0: eb69 d9bc 4bef 1fbd 07cd 763c cf15 f5bc
000001e0: 1909 d8bc 71e6 30bd c8ea 4ebd 2967 f3bc
000001f0: e37d fe3c 3c7a 3bbd 2e03 0ebc df72 3f3c
00000200: 6b18 213d 7d38 4bbc 4455 81bc 50f4 53bc
00000210: 182f 703c 4e2d 8abc 7141 113b 4f73 5abd
00000220: c0cf 143b 945d 87bd 7625 84bd 4cc2 84bc
00000230: 3550 b43b 8995 59bc 731f edbc a8c9 8abd
00000240: 23e2 12bd 30e8 003d 41f3 26bc 7a86 51bd
00000250: 66d3 5c3d 649f 47bd 8820 39bc fc75 eabc
00000260: 3a80 1fbd d16f 8abd 4c96 edbd b0d2 b8bc
00000270: f7c1 f43c cedb fcbb a185 98bc 80b8 cd3c
00000280: dccf 483c 6ca2 b2bd 197d fe3b 8547 133d
00000290: d8c5 febc 54db 8e3b 3abc 333d 5432 6cbd
000002a0: 16ce 0fbd 1796 9bbc 92c5 94bc 30ba 313c
000002b0: 71c9 b2bc 12d7 9abc 6387 063d 38dd 443c
000002c0: cb9a 50bd 9a9c 29bd 15cd 353c 5991 30bd
000002d0: e952 a6bd 9e47 63bc 251e bc3a 291a 5c3c
000002e0: 2d41 10bd b7e1 65bc 3b15 13bd 6030 5dbd
000002f0: 91fd 083c ce93 5ebb 1207 313d 6113 cebc
00000300: 8dc1 6d3c 4fe8 483d 61fe 69bc 56e3 5dbd
00000310: 5370 02bd d81b f23c b4b2 8c3c e7c7 84bc
00000320: 0c1b bbbd d2fc dabd 7485 83bd ec85 0ebc
00000330: 10f8 f43c 5b77 11bd 1eed a1bd 08cb 363c
00000340: bf1e f7bc 9044 973c 52ab ac3c 166c c13c
00000350: f235 e13c cd1f 83bb 4578 16bd ded2 a0b8
00000360: af3f 933b d46e 50bc e7de 1a3d 3e39 11bd
00000370: c3ba 82bd b066 e3bd 3dca 0abd aac5 32bc
00000380: 3022 51bc 1d66 a33c ea95 f6bc b6d8 63bd
00000390: 662a 50bd cdc9 67bd 087f dc3c 7880 403c
000003a0: 251c 2c3d 0bf2 9eba ea56 86bc 88b1 fabc
000003b0: 8135 4bbc 4f74 f9bc e2ae 10bd 66d5 2fbd
000003c0: 1b9c 55bd 816d 3dbd c068 8abd a003 4bbc
000003d0: f51a 83bd 4667 0cbd ee11 133c 1681 98bd
000003e0: 03f3 55bd 3c3b 3ebb daef 26bd 2d5d 953c
000003f0: 6581 aeba 51bc 24bc a157 86bb eca2 11bd
0.019818611 -0.033993844 0.014551408 0.0222609 0.06259079 -0.017105423 -0.009867752 -0.0044954075
0.0032126654 -0.10244633 -0.034670737 -0.0378846 -0.04234463 -0.03750021 -0.028807856 -0.08082451
-0.09436972 2.2405417e-05 -0.026501289 -0.07126491 -0.024022881 -0.044328004 -0.097393 -0.041471228
-0.0010306814 -0.07058846 0.004181356 -0.06229263 -0.03235172 -0.04394643 -0.002224031 0.050513193
0.04131138 0.025539178 0.0007179646 -0.068849914 -0.01974548 0.0035511842 0.018831769 -0.07045723
-0.02909075 -0.04166102 0.01595401 -0.0029083549 0.005140992 0.00276013 0.025440905 0.024024457
0.033505574 0.019756913 -0.012184528 -0.03232816 -0.015026822 -0.044468433 -0.094250776 0.024684941
0.019911585 -0.0076141213 -0.033924617 -0.038715295 -0.076291844 -0.029326284 0.0017709581 -0.035789862
-0.049305804 -0.106841184 -0.09850587 -0.11606675 -0.020869652 -0.06566003 -0.07914953 -0.027690172
0.016163396 -0.016651154 0.06282486 0.026481342 -0.0790311 -0.06580975 -0.027694399 0.08853566
0.009863405 -0.01188963 0.016736299 -0.0018190587 0.014270967 0.009633019 -0.013077375 -0.030440629
-0.011984696 -0.014866733 0.05214425 -0.07072475 -0.030266237 0.016031243 0.016777467 -0.060309734
-0.017401364 -0.00505252 -0.0032625298 -0.032622203 0.048675 0.014938163 0.011931355 0.021946825
-0.04224778 0.009996368 -0.016181856 0.0011501928 -0.055346206 -0.038714938 0.0158957 -0.022098748
-0.030100469 -0.022106381 -0.03050562 0.004772802 -0.026539763 -0.039046567 0.015063531 -0.029917626
-0.026371526 -0.043188516 -0.050516874 -0.029712277 0.031065887 -0.04577087 -0.00866775 0.011685102
0.039329927 -0.012403605 -0.015787728 -0.012936667 0.0146596655 -0.016867306 0.002216425 -0.053332623
0.0022706836 -0.066096455 -0.064524576 -0.01620593 0.0055027255 -0.013280281 -0.02894566 -0.06776744
-0.035860192 0.03147143 -0.010189832 -0.051153637 0.053912543 -0.04873599 -0.01129926 -0.028620712
-0.038940646 -0.067596085 -0.116009325 -0.022561401 0.029877646 -0.0077166324 -0.018618407 0.02511239
0.012256589 -0.08722386 0.0077663776 0.03595688 -0.031100199 0.004359642 0.04388068 -0.057665184
-0.03510865 -0.018992467 -0.018160615 0.010847613 -0.02182457 -0.018901382 0.03284396 0.012015633
-0.050928872 -0.041409113 0.011096259 -0.043107364 -0.081212826 -0.013872055 0.0014352245 0.013433971
-0.035218406 -0.014030865 -0.03590892 -0.054001212 0.008361236 -0.003396261 0.043219633 -0.025155725
0.014511478 0.04904967 -0.01428184 -0.054171883 -0.031845402 0.029554293 0.017175056 -0.016208602
-0.09136018 -0.10692753 -0.064219385 -0.008698922 0.029903442 -0.035514217 -0.07906555 0.011156805
-0.030166028 0.01846531 0.021077786 0.02361111 0.027491543 -0.0040015937 -0.03673579 -7.6686716e-05
0.0044936757 -0.012721736 0.037810232 -0.03545498 -0.06383278 -0.111035705 -0.033884276 -0.010911385
-0.012764499 0.019946152 -0.030100781 -0.055626594 -0.050821684 -0.056588937 0.026916042 0.011749379
0.04201903 -0.0012126578 -0.016398866 -0.030602232 -0.012402893 -0.030450968 -0.03532303 -0.042928122
-0.052150827 -0.04624701 -0.06758261 -0.012391001 -0.06401626 -0.034278177 0.008976443 -0.07446496
-0.052233707 -0.0029027006 -0.040756084 0.018232906 -0.0013313709 -0.010054664 -0.0040998016 -0.035555765

fc4.bias f4 [11]
00000000: 122f cfbc 77ce 2fbd 7e46 39bd ed29 6dbd
00000010: 9aff 73bd 0c2a 4fbd 445a 2dbd 7560 c5bc
00000020: f3c3 5bbd c77f c2bd 0516 cc3d
-0.025291 -0.04292151 -0.045233242 -0.05790131 -0.059569933 -0.05057721 -0.042322412 -0.024093846
-0.05365367 -0.09497028 0.099651374

fc5.weight f4 [11, 672]
00000000: b6b1 55bd 30d8 6c3b a482 d7bb 8811 8abc
00000010: 0c20 3ebd 8e90 24bd 0a4f f8bc dd9c 80bd
00000020: c5d2 80bd 02bf ccbc b132 62bd 7052 80bd
00000030: 6ef3 7cbd 7603 4cbd 0429 4ebd 7a20 36bc
00000040: 48ee 19bd b771 4fbd 6a18 88bd f5dc 89bc
00000050: 7611 f8bc c7ea 74bd 9794 32bd d6a4 91bc
00000060: 0d5c 5bbd c146 17bd 1743 02bd 8c80 92bc
00000070: 52ff b5bc 6808 c0bc 4814 933c aa4e 72bc
00000080: eb6b 2cbd a6a7 a13c def7 d7bc aa52 55bd
00000090: a80b c6bc d691 47bd de5f ccba 7a4a f2bc
000000a0: c8e7 5bbc 68be 47bd 3421 95bb 8217 5bbd
000000b0: f8f7 2ebd 16ee e8bc 6be2 7abd 3aa7 83bd
000000c0: 9f3c 1abd b32e 84bc 56f9 87bd 28f5 2bbc
000000d0: d902 06bd f0ee 813b b05b 1abd 8aa8 61bd
000000e0: d4db 9bbb 02a8 67bd f5c0 5cbd 336c 25bd
000000f0: bb4b 86bd 0795 04bd 510b 34bc c32a 40bd
00000100: f8a5 03bd fdcd d8bb 3ae7 803b 65c2 08bd
00000110: 77e8 3b3b a9d2 6abc e669 bebc a00e 86bc
00000120: e288 3abd f426 94bc c902 33bd 22a8 a1bb
00000130: a3d6 08bc d3fe 37bd f7f0 16bd 83cd 34bd
00000140: 730d 22bd 1715 933c c6af 49bd 555d 87bb
00000150: 1fb3 3bbe 16ff 84be ad9b 7dbe 18ad 57be
00000160: e5ea 4fbe 8c8d 47be 1100 89be 97da 3bbe
00000170: c953 7ebe 8585 50be 38c3 ffbd 6f20 1cbe
00000180: 5461 38be 8290 96be e9f7 6cbe aa6c 8abe
00000190: 8584 62be 7c63 0bbe 77ab 3fbe aee6 5dbe
000001a0: 6911 79be 9ae9 453b e465 f4bc 0d4d 64bd
000001b0: f771 a3ba 84ed 88bc 79bd 5bbd 668a f3bc
000001c0: f3fa 94bc 4ed4 10bc f315 58bd 386f 87bc
000001d0: 5200 6cbb 380c 56bd 6a22 b6bc b165 71bd
000001e0: 3dd4 2abd f585 55bd d881 4bbc e0b6 90bc
000001f0: e0fe b0ba 900b 613a a66a 0ebd d01b 36bd
00000200: 19cd 083c 6511 2abd ce0e 25bd 3c9b 35bd
00000210: 2b56 b2bc a392 4cbd e050 43bd 16fd d1bc
00000220: 3a90 90bd bec1 3bbc 092a 9bbd eaec 3d3b
00000230: 66a6 35bd dbb6 9abc 17f0 c5bc 7f52 4cbd
00000240: 2df8 0abd a545 07bd 3751 48bd 8892 26bd
00000250: 0691 86bc cf5c 5bbd 5e39 54bd 7d3b 10bd
00000260: 5847 75bd 28a2 aa39 4a90 0ebd 59f8 a4bc
00000270: c098 55bd ebfc 81bd 2707 90bd c607 10bd
00000280: 05c2 86bd a892 043b 83ba 85bd ade1 69bd
00000290: afd1 20bc 7b19 4ebd 336b fd3b c3c2 20bd
000002a0: 722a 1bba 81bc 82bd 93a2 7bbc 66c7 63bd
000002b0: 7459 94bc f14a 09bd ad15 77bd 7051 1f3c
000002c0: b643 5bbd 4b88 cabc 0cd9 edbc c421 a83b
000002d0: 2340 38bd 4d02 833c 47cc 50bd fb3b 463b
000002e0: c06f babb ba71 70bd c5c0 57bd 3f7a 0bbd
000002f0: 7523 adbc 42f8 91bc b7f8 22bd 736a fcbc
00000300: 7e19 d9bb 4b32 22bd 7e0a 63bd 3e43 ef3a
00000310: c984 eebc 4559 48bc 815e be3a 83fa 6ebd
00000320: d966 68bb c3a5 1f3c 7969 63bd 75ab 02bd
00000330: 782e 2a3b dfac 20bd 81b0 d4bc a3a1 f8bc
00000340: df97 783c 4cb0 75bd e205 e3bc 1d12 693b
00000350: aebb 8cbd 2510 9ebb 3234 bb3a c620 a1bc
00000360: 84a3 85bd f7bc 95bc 1f2a e5bb 664b 4ebb
00000370: 885d 8abd 021f 8cbd fc4a 46bd b55d 41bd
00000380: 2df0 95bb 0407 6ebd f799 8f3b 0c31 8dbd
00000390: b1c9 80bd 7c3c 13bd d6e9 eebb 2a57 9bbc
000003a0: 5e95 63bd b0f2 953b 6e32 b2bb e375 36bd
000003b0: d4c7 91bc 6da1 22bd a283 0abd 7bb7 6fbd
000003c0: 2c70 07bd 3716 87bc d9b2 28bd a9fd 2dbd
000003d0: e32e f0bc e56e 77bd 0a4b 9a3b b5db 7dbc
000003e0: 1930 35bd 7c1b cbbc 8493 c3ba 3abf d03b
000003f0: c045 80bd 1eb1 0cbd 970d e2bc 077f c43b
-0.05217143 0.00361396 -0.006576853 -0.016854063 -0.04641728 -0.04017692 -0.030311126 -0.06279919
-0.06290201 -0.024993423 -0.055224124 -0.06265724 -0.06175559 -0.049807988 -0.050332084 -0.011116141
-0.03758076 -0.050645556 -0.066452816 -0.016828993 -0.030281764 -0.059794214 -0.043598738 -0.017778795
-0.053554583 -0.03693271 -0.031802263 -0.017883562 -0.022216473 -0.023441508 0.017954007 -0.014789263
-0.042095106 0.019733261 -0.02636331 -0.052080788 -0.02417548 -0.048723064 -0.0015592535 -0.029576529
-0.01342196 -0.04876557 -0.0045510773 -0.053489216 -0.04271695 -0.02843384 -0.061251085 -0.0642838
-0.03765547 -0.01613555 -0.06639354 -0.0104954615 -0.03271756 0.003965251 -0.037685096 -0.055092372
-0.00475643 -0.05655671 -0.053894956 -0.04038639 -0.06557413 -0.032368686 -0.010989026 -0.04691578
-0.032140702 -0.0066163526 0.0039338144 -0.033388514 0.0028672495 -0.014332452 -0.023243856 -0.016364396
-0.045540698 -0.01808498 -0.043703828 -0.004933373 -0.008351955 -0.044920754 -0.036850896 -0.044141304
-0.039563607 0.017954392 -0.049239896 -0.004130999 -0.18330048 -0.25975865 -0.24766417 -0.21062124
-0.20304449 -0.1948759 -0.26757863 -0.18345104 -0.24836649 -0.20363434 -0.12488407 -0.15246747
-0.18005878 -0.29407126 -0.23141445 -0.2703603 -0.22120865 -0.13612169 -0.18717752 -0.21670029
-0.24323048 0.0030199052 -0.029833741 -0.055737544 -0.0012469877 -0.016714819 -0.053647492 -0.02972908
-0.018186068 -0.00883968 -0.052755307 -0.016532525 -0.0036010933 -0.052257746 -0.022233207 -0.05893487
-0.041706312 -0.052129705 -0.012421094 -0.017665327 -0.0013503693 0.0008584792 -0.034769677 -0.044460118
0.00834968 -0.041520495 -0.040297322 -0.044337496 -0.021769604 -0.04994453 -0.04768455 -0.025633376
-0.07058759 -0.011459766 -0.07576377 0.0028980323 -0.044348143 -0.01888602 -0.024162335 -0.049883362
-0.033928085 -0.033025403 -0.048905578 -0.040667087 -0.016426574 -0.053555306 -0.051812522 -0.035212982
-0.05988249 0.00032545743 -0.034805574 -0.020137953 -0.052147627 -0.063470684 -0.07032614 -0.035163663
-0.06579975 0.0020229015 -0.06529715 -0.057099987 -0.009815617 -0.05031727 0.0077337264 -0.03924824
-0.00059191056 -0.063836105 -0.015358585 -0.055610083 -0.01810906 -0.033518735 -0.060323406 0.009724006
-0.05353137 -0.024723193 -0.02903416 0.0051309783 -0.04498304 0.015992308 -0.050976064 0.0030248153
-0.005689591 -0.058702208 -0.052674074 -0.03405213 -0.021135071 -0.017818574 -0.039787974 -0.030812478
-0.0066253534 -0.039598744 -0.055429928 0.0018254293 -0.029116051 -0.012228315 0.0014524014 -0.058344375
-0.0035461693 0.0097441105 -0.05552051 -0.031901795 0.002596764 -0.039227363 -0.02596307 -0.030350512
0.015172928 -0.059982583 -0.027712766 0.0035563775 -0.068717346 -0.004823702 0.0014282523 -0.019668948
-0.06525329 -0.018278582 -0.0069935466 -0.0031478046 -0.06756121 -0.06841852 -0.048411354 -0.047208507
-0.0045757503 -0.05811216 0.0043823677 -0.068941206 -0.062884696 -0.035946354 -0.007291059 -0.018962462
-0.05556237 0.0045760497 -0.0054381406 -0.04454602 -0.01779548 -0.03970473 -0.03381694 -0.05852459
-0.03306596 -0.016490085 -0.041186187 -0.042478237 -0.029319232 -0.06040849 0.0047086524 -0.015494277
-0.044235323 -0.024793379 -0.0014921282 0.006370452 -0.06263304 -0.0343486 -0.02759437 0.005996588

fc5.bias f4 [11]
00000000: 49ea 40bd 0920 7a3b 2c1a 3bbd 335e 373b
00000010: 4110 f7bc 7a63 2abd 5306 b83a 091c 80bc
00000020: 1b31 78bc 312e 3ebd 5213 4b3c
-0.04709843 0.0038166067 -0.045679256 0.002797973 -0.030159118 -0.041598774 0.0014039971 -0.015638368
-0.015148426 -0.04643077 0.012394743
